…
None, split=val, stream_buffer=False, task=detect, time=None, tracker=botsort.yaml, translate=0.1, val=True, verbose=True, vid_stride=1, visualize=False, warmup_bias_lr=0.1, warmup_epochs=3.0, warmup_momentum=0.8, weight_decay=0.0005, workers=8, workspace=None
←[KDownloading https://ultralytics.com/assets/Arial.ttf to 'C:\Users\ON\AppData\Roaming\Ultralytics\Arial.ttf': 100% ━━━━━━━━━━━━ 755.1KB 10.1MB/s 0.1s
Overriding model.yaml nc=80 with nc=4

                   from  n    params  module                                       arguments
  0                  -1  1      1760  ultralytics.nn.modules.conv.Conv             [3, 16, 6, 2, 2]
  1                  -1  1      4672  ultralytics.nn.modules.conv.Conv             [16, 32, 3, 2]
  2                  -1  1      4800  ultralytics.nn.modules.block.C3              [32, 32, 1]
  3                  -1  1     18560  ultralytics.nn.modules.conv.Conv             [32, 64, 3, 2]
  4                  -1  2     29184  ultralytics.nn.modules.block.C3              [64, 64, 2]
  5                  -1  1     73984  ultralytics.nn.modules.conv.Conv             [64, 128, 3, 2]
  6                  -1  3    156928  ultralytics.nn.modules.block.C3              [128, 128, 3]
  7                  -1  1    295424  ultralytics.nn.modules.conv.Conv             [128, 256, 3, 2]
  8                  -1  1    296448  ultralytics.nn.modules.block.C3              [256, 256, 1]
  9                  -1  1    164608  ultralytics.nn.modules.block.SPPF            [256, 256, 5]
 10                  -1  1     33024  ultralytics.nn.modules.conv.Conv             [256, 128, 1, 1]
 11                  -1  1         0  torch.nn.modules.upsampling.Upsample         [None, 2, 'nearest']
 12             [-1, 6]  1         0  ultralytics.nn.modules.conv.Concat           [1]
 13                  -1  1     90880  ultralytics.nn.modules.block.C3              [256, 128, 1, False]
 14                  -1  1      8320  ultralytics.nn.modules.conv.Conv             [128, 64, 1, 1]
 15                  -1  1         0  torch.nn.modules.upsampling.Upsample         [None, 2, 'nearest']
 16             [-1, 4]  1         0  ultralytics.nn.modules.conv.Concat           [1]
 17                  -1  1     22912  ultralytics.nn.modules.block.C3              [128, 64, 1, False]
 18                  -1  1     36992  ultralytics.nn.modules.conv.Conv             [64, 64, 3, 2]
 19            [-1, 14]  1         0  ultralytics.nn.modules.conv.Concat           [1]
 20                  -1  1     74496  ultralytics.nn.modules.block.C3              [128, 128, 1, False]
 21                  -1  1    147712  ultralytics.nn.modules.conv.Conv             [128, 128, 3, 2]
 22            [-1, 10]  1         0  ultralytics.nn.modules.conv.Concat           [1]
 23                  -1  1    296448  ultralytics.nn.modules.block.C3              [256, 256, 1, False]
 24        [17, 20, 23]  1    752092  ultralytics.nn.modules.head.Detect           [4, 16, None, [64, 128, 256]]
YOLOv5n summary: 154 layers, 2,509,244 parameters, 2,509,228 gradients, 7.2 GFLOPs

Transferred 391/427 items from pretrained weights
Freezing layer 'model.24.dfl.conv.weight'
←[34m←[1mtrain: ←[0mFast image access  (ping: 0.10.0 ms, read: 6.70.4 MB/s, size: 64.5 KB)
←[K←[34m←[1mtrain: ←[0mScanning C:\Users\ON\YOLO\datasets\screws\labels\train... 29 images, 4 backgrounds, 0 corrupt: 60←[K←[34m←[1mtrain: ←[0mScanning C:\Users\ON\YOLO\datasets\screws\labels\train... 48 images, 4 backgrounds, 0 corrupt: 100% ━━━━━━━━━━━━ 48/48 368.5it/s 0.1s
…
